…
    "__Question 4:__ Outline the steps you took to get to your final CNN architecture and your reasoning at each step.  If you chose to use the hinted architecture above, describe why you think that CNN architecture should work well for the image classification task.\n",
    "\n",
    "__Answer:__ "
   ]
  },
  {
   "cell_type": "code",
   "execution_count": 14,
   "metadata": {},
   "outputs": [
    {
     "name": "stdout",
     "output_type": "stream",
     "text": [
      "_________________________________________________________________\n",
      "Layer (type)                 Output Shape              Param #   \n",
      "=================================================================\n",
      "conv2d_1 (Conv2D)            (None, 224, 224, 16)      208       \n",
      "_________________________________________________________________\n",
      "max_pooling2d_2 (MaxPooling2 (None, 112, 112, 16)      0         \n",
      "_________________________________________________________________\n",
      "conv2d_2 (Conv2D)            (None, 112, 112, 32)      2080      \n",
      "_________________________________________________________________\n",
      "max_pooling2d_3 (MaxPooling2 (None, 56, 56, 32)        0         \n",
      "_________________________________________________________________\n",
      "conv2d_3 (Conv2D)            (None, 56, 56, 64)        8256      \n",
      "_________________________________________________________________\n",
      "max_pooling2d_4 (MaxPooling2 (None, 28, 28, 64)        0         \n",
      "_________________________________________________________________\n",
      "dropout_1 (Dropout)          (None, 28, 28, 64)        0         \n",
      "_________________________________________________________________\n",
      "flatten_2 (Flatten)          (None, 50176)             0         \n",
      "_________________________________________________________________\n",
      "dense_1 (Dense)              (None, 512)               25690624  \n",
      "_________________________________________________________________\n",
      "dropout_2 (Dropout)          (None, 512)               0         \n",
      "_________________________________________________________________\n",
      "dense_2 (Dense)              (None, 133)               68229     \n",
      "=================================================================\n",
      "Total params: 25,769,397.0\n",
      "Trainable params: 25,769,397.0\n",
      "Non-trainable params: 0.0\n",
      "_________________________________________________________________\n"
     ]
    }
   ],
   "source": [
    "from keras.layers import Conv2D, MaxPooling2D, GlobalAveragePooling2D\n",
    "from keras.layers import Dropout, Flatten, Dense\n",
…
